                 from  n    params  module                                  arguments
  0                -1  1       928  models.common.Conv                      [3, 32, 3, 1]
  1                -1  1     18560  models.common.Conv                      [32, 64, 3, 2]
  2                -1  1     36992  models.common.Conv                      [64, 64, 3, 1]
  3                -1  1     73984  models.common.Conv                      [64, 128, 3, 2]
  4                -1  1     69760  models.common.CNeB                      [128, 128, 1]
  5                -1  1    295424  models.common.Conv                      [128, 256, 3, 2]
  6                -1  1         0  models.Models.research.MP               []
  7                -1  1     33024  models.common.Conv                      [256, 128, 1, 1]
  8                -3  1     33024  models.common.Conv                      [256, 128, 1, 1]
  9                -1  1    147712  models.common.Conv                      [128, 128, 3, 2]
 10          [-1, -3]  1         0  models.common.Concat                    [1]
 11                -1  1     33024  models.common.Conv                      [256, 128, 1, 1]
 12                -2  1     33024  models.common.Conv                      [256, 128, 1, 1]
 13                -1  1    147712  models.common.Conv                      [128, 128, 3, 1]
 14                -1  1    147712  models.common.Conv                      [128, 128, 3, 1]
 15                -1  1    147712  models.common.Conv                      [128, 128, 3, 1]
 16                -1  1    147712  models.common.Conv                      [128, 128, 3, 1]
 17  [-1, -3, -5, -6]  1         0  models.common.Concat                    [1]
 18                -1  1    263168  models.common.Conv                      [512, 512, 1, 1]
 19                -1  1         0  models.Models.research.MP               []
 20                -1  1    131584  models.common.Conv                      [512, 256, 1, 1]
 21                -3  1    131584  models.common.Conv                      [512, 256, 1, 1]
 22                -1  1    590336  models.common.Conv                      [256, 256, 3, 2]
 23          [-1, -3]  1         0  models.common.Concat                    [1]
 24                -1  1    131584  models.common.Conv                      [512, 256, 1, 1]
 25                -2  1    131584  models.common.Conv                      [512, 256, 1, 1]
 26                -1  1    590336  models.common.Conv                      [256, 256, 3, 1]
 27                -1  1    590336  models.common.Conv                      [256, 256, 3, 1]
 28                -1  1    590336  models.common.Conv                      [256, 256, 3, 1]
 29                -1  1    590336  models.common.Conv                      [256, 256, 3, 1]
 30  [-1, -3, -5, -6]  1         0  models.common.Concat                    [1]
 31                -1  1   1050624  models.common.Conv                      [1024, 1024, 1, 1]
 32                -1  1         0  models.Models.research.MP               []
 33                -1  1    525312  models.common.Conv                      [1024, 512, 1, 1]
 34                -3  1    525312  models.common.Conv                      [1024, 512, 1, 1]
 35                -1  1   2360320  models.common.Conv                      [512, 512, 3, 2]
 36          [-1, -3]  1         0  models.common.Concat                    [1]
 37                -1  1   4228096  models.common.CNeB                      [1024, 1024, 1]
 38                -1  1   2359808  models.common.Conv                      [1024, 256, 3, 1]
 39                -1  1   6822912  models.common.SPPCSPC                   [256, 512, 1]
 40                -1  1    131584  models.common.Conv                      [512, 256, 1, 1]
 41                -1  1         0  torch.nn.modules.upsampling.Upsample    [None, 2, 'nearest']
 42                31  1    262656  models.common.Conv                      [1024, 256, 1, 1]
 43          [-1, -2]  1         0  models.common.Concat                    [1]
 44                -1  1    123712  models.common.C3TR                      [512, 128, 1]
 45                -1  1     16640  models.common.Conv                      [128, 128, 1, 1]
 46                -1  1         0  torch.nn.modules.upsampling.Upsample    [None, 2, 'nearest']
 47                18  1     65792  models.common.Conv                      [512, 128, 1, 1]
 48          [-1, -2]  1         0  models.common.Concat                    [1]
 49                -1  1     90944  models.common.C3TR                      [256, 128, 1]
 50                -1  1         0  models.Models.research.MP               []
 51                -1  1     16640  models.common.Conv                      [128, 128, 1, 1]
 52                -3  1         0  models.Models.Attention.SimAM.SimAM     [128]
 53                -1  1    147712  models.common.Conv                      [128, 128, 3, 2]
 54      [-1, -3, 44]  1         0  models.common.Concat                    [1]
 55                -1  1    329344  models.common.C3TR                      [384, 256, 1]
 56                -1  1         0  models.Models.research.MP               []
 57                -1  1     66048  models.common.Conv                      [256, 256, 1, 1]
 58                -3  1     66048  models.common.Conv                      [256, 256, 1, 1]
 59                -1  1    590336  models.common.Conv                      [256, 256, 3, 2]
 60      [-1, -3, 39]  1         0  models.common.Concat                    [1]
 61                -1  1   1445120  models.common.C3TR                      [1024, 512, 1]
 62                49  1    328704  models.Models.research.RepConv          [128, 256, 3, 1]
 63                55  1   1312768  models.Models.research.RepConv          [256, 512, 3, 1]
 64                61  1   5246976  models.Models.research.RepConv          [512, 1024, 3, 1]
 65      [62, 63, 64]  1     55732  models.Detect.MuitlHead.IDetect         [5, [[12, 16, 19, 36, 40, 28], [36, 75, 76, 55, 72, 146], [142, 110, 192, 243, 459, 401]], [256, 512, 1024]]
…
